…
02-14 05:12 INFO: #unk in unlabeled sentences: (0, 125351, 0.0)
02-14 05:12 INFO: labeled buffer size: logvar1: 4825, mean1: 4825, logvar2: 4825, mean2: 4825
02-14 05:12 INFO: unlabeled buffer size: logvar1: 5701, mean1: 5701, logvar2: 5701, mean2: 5701
02-14 05:12 INFO: ************************* DATA PREPARATION *************************
02-14 05:12 INFO: ************************* MODEL INITIALIZATION *************************
02-14 05:12 INFO: Initialized with pretrained word embedding
02-14 05:12 INFO: Word Embedding not trainable
02-14 05:12 INFO: transferred model to gpu
02-14 05:12 INFO: vsl_gg(
  (char_encoder): char_rnn(
    (char_embed): Embedding(128, 50)
    (char_cell): GRU(50, 100, batch_first=True, bidirectional=True)
  )
  (word_embed): Embedding(276421, 768)
  (word_encoder): GRU(968, 500, batch_first=True, bidirectional=True)
  (x2token): Linear(in_features=768, out_features=276421, bias=False)
  (to_latent_variable): gaussian_hier_layer(
    (q_mean2_mlp): Linear(in_features=1000, out_features=100, bias=True)
    (q_logvar2_mlp): Linear(in_features=1000, out_features=100, bias=True)
    (q_mean_mlp): Linear(in_features=1100, out_features=200, bias=True)
    (q_logvar_mlp): Linear(in_features=1100, out_features=200, bias=True)
  )
  (classifier): Linear(in_features=100, out_features=32, bias=True)
  (yz2x): Sequential(
    (0): Linear(in_features=200, out_features=500, bias=True)
    (1): ReLU()
    (2): Linear(in_features=500, out_features=500, bias=True)
    (3): ReLU()
    (4): Linear(in_features=500, out_features=768, bias=True)
  )
)
02-14 05:12 INFO: ************************* MODEL INITIALIZATION *************************
02-14 05:12 INFO: Training start ...
02-14 05:23 INFO: it: 5000 (max: 483), kl_temp: 0.65, labeled, loss: 2.580, logloss: 1.363, kl_div: 13.149, sup_loss: 0.219, elapsed time: 652.0(s), unlabeled, loss: 2.697, logloss: 1.595, kl_div: 13.592, elapsed time: 652.0(s)
…
