…
02-14 06:40 INFO: #unk in unlabeled sentences: (0, 51930, 0.0)
02-14 06:40 INFO: labeled buffer size: logvar1: 1073, mean1: 1073, logvar2: 1073, mean2: 1073
02-14 06:40 INFO: unlabeled buffer size: logvar1: 2684, mean1: 2684, logvar2: 2684, mean2: 2684
02-14 06:40 INFO: ************************* DATA PREPARATION *************************
02-14 06:40 INFO: ************************* MODEL INITIALIZATION *************************
02-14 06:40 INFO: Initialized with pretrained word embedding
02-14 06:40 INFO: Word Embedding not trainable
02-14 06:40 INFO: transferred model to gpu
02-14 06:40 INFO: vsl_gg(
  (char_encoder): char_rnn(
    (char_embed): Embedding(169, 50)
    (char_cell): GRU(50, 100, batch_first=True, bidirectional=True)
  )
  (word_embed): Embedding(98779, 768)
  (word_encoder): GRU(968, 500, batch_first=True, bidirectional=True)
  (x2token): Linear(in_features=768, out_features=98779, bias=False)
  (to_latent_variable): gaussian_hier_layer(
    (q_mean2_mlp): Linear(in_features=1000, out_features=100, bias=True)
    (q_logvar2_mlp): Linear(in_features=1000, out_features=100, bias=True)
    (q_mean_mlp): Linear(in_features=1100, out_features=200, bias=True)
    (q_logvar_mlp): Linear(in_features=1100, out_features=200, bias=True)
  )
  (classifier): Linear(in_features=100, out_features=17, bias=True)
  (yz2x): Sequential(
    (0): Linear(in_features=200, out_features=500, bias=True)
    (1): ReLU()
    (2): Linear(in_features=500, out_features=500, bias=True)
    (3): ReLU()
    (4): Linear(in_features=500, out_features=768, bias=True)
  )
)
02-14 06:40 INFO: ************************* MODEL INITIALIZATION *************************
02-14 06:40 INFO: Training start ...
02-14 06:50 INFO: it: 5000 (max: 108), kl_temp: 0.65, labeled, loss: 1.476, logloss: 0.769, kl_div: 6.664, sup_loss: 0.099, elapsed time: 584.4(s), unlabeled, loss: 1.740, logloss: 1.020, kl_div: 10.272, elapsed time: 584.4(s)
…
