…
02-14 07:06 INFO: #unk in unlabeled sentences: (0, 95864, 0.0)
02-14 07:06 INFO: labeled buffer size: logvar1: 965, mean1: 965, logvar2: 965, mean2: 965
02-14 07:06 INFO: unlabeled buffer size: logvar1: 3860, mean1: 3860, logvar2: 3860, mean2: 3860
02-14 07:06 INFO: ************************* DATA PREPARATION *************************
02-14 07:06 INFO: ************************* MODEL INITIALIZATION *************************
02-14 07:06 INFO: Initialized with pretrained word embedding
02-14 07:06 INFO: Word Embedding not trainable
02-14 07:06 INFO: transferred model to gpu
02-14 07:06 INFO: vsl_gg(
  (char_encoder): char_rnn(
    (char_embed): Embedding(97, 50)
    (char_cell): GRU(50, 100, batch_first=True, bidirectional=True)
  )
  (word_embed): Embedding(151070, 768)
  (word_encoder): GRU(968, 500, batch_first=True, bidirectional=True)
  (x2token): Linear(in_features=768, out_features=151070, bias=False)
  (to_latent_variable): gaussian_hier_layer(
    (q_mean2_mlp): Linear(in_features=1000, out_features=100, bias=True)
    (q_logvar2_mlp): Linear(in_features=1000, out_features=100, bias=True)
    (q_mean_mlp): Linear(in_features=1100, out_features=200, bias=True)
    (q_logvar_mlp): Linear(in_features=1100, out_features=200, bias=True)
  )
  (classifier): Linear(in_features=100, out_features=32, bias=True)
  (yz2x): Sequential(
    (0): Linear(in_features=200, out_features=500, bias=True)
    (1): ReLU()
    (2): Linear(in_features=500, out_features=500, bias=True)
    (3): ReLU()
    (4): Linear(in_features=500, out_features=768, bias=True)
  )
)
02-14 07:06 INFO: ************************* MODEL INITIALIZATION *************************
02-14 07:06 INFO: Training start ...
02-14 07:17 INFO: it: 5000 (max: 97), kl_temp: 0.65, labeled, loss: 1.456, logloss: 0.796, kl_div: 6.479, sup_loss: 0.128, elapsed time: 637.6(s), unlabeled, loss: 1.868, logloss: 1.041, kl_div: 12.549, elapsed time: 637.6(s)
…
