…
02-14 16:43 INFO: #test data: 482, max len: 125, min len: 5, avg len: 23.14
02-14 16:43 INFO: #unk in test sentences: (380, 11153, 0.034071550255536626)
02-14 16:43 INFO: labeled buffer size: logvar1: 13033, mean1: 13033, logvar2: 13033, mean2: 13033
02-14 16:43 INFO: ************************* DATA PREPARATION *************************
02-14 16:43 INFO: ************************* MODEL INITIALIZATION *************************
02-14 16:43 INFO: Initialized with pretrained word embedding
02-14 16:43 INFO: Word Embedding not trainable
02-14 16:43 INFO: transferred model to gpu
02-14 16:43 INFO: vsl_gg(
  (char_encoder): char_rnn(
    (char_embed): Embedding(125, 50)
    (char_cell): GRU(50, 100, batch_first=True, bidirectional=True)
  )
  (word_embed): Embedding(26563, 100)
  (word_encoder): GRU(300, 100, batch_first=True, bidirectional=True)
  (x2token): Linear(in_features=100, out_features=26563, bias=False)
  (to_latent_variable): gaussian_flat_layer(
    (q_mean_mlp): Linear(in_features=200, out_features=50, bias=True)
    (q_logvar_mlp): Linear(in_features=200, out_features=50, bias=True)
    (q_mean2_mlp): Linear(in_features=200, out_features=25, bias=True)
    (q_logvar2_mlp): Linear(in_features=200, out_features=25, bias=True)
  )
  (classifier): Linear(in_features=25, out_features=18, bias=True)
  (yz2x): Sequential(
    (0): Linear(in_features=75, out_features=100, bias=True)
    (1): ReLU()
    (2): Linear(in_features=100, out_features=100, bias=True)
    (3): ReLU()
    (4): Linear(in_features=100, out_features=100, bias=True)
  )
)
02-14 16:43 INFO: ************************* MODEL INITIALIZATION *************************
02-14 16:43 INFO: Training start ...
02-14 16:48 INFO: it: 5000 (max: 1304), kl_temp: 0.65, labeled, loss: 2.981, logloss: 1.207, kl_div: 11.577, sup_loss: 0.356, elapsed time: 324.0(s)
02-14 16:54 INFO: it: 10000 (max: 1304), kl_temp: 1.00, labeled, loss: 0.745, logloss: 0.272, kl_div: 0.296, sup_loss: 0.206, elapsed time: 333.0(s)
…
