…
02-14 15:52 INFO: #test data: 670, max len: 145, min len: 1, avg len: 25.84
02-14 15:52 INFO: #unk in test sentences: (800, 17313, 0.04620805175301796)
02-14 15:52 INFO: labeled buffer size: logvar1: 965, mean1: 965, logvar2: 965, mean2: 965
02-14 15:52 INFO: ************************* DATA PREPARATION *************************
02-14 15:52 INFO: ************************* MODEL INITIALIZATION *************************
02-14 15:52 INFO: Initialized with pretrained word embedding
02-14 15:52 INFO: Word Embedding not trainable
02-14 15:52 INFO: transferred model to gpu
02-14 15:52 INFO: vsl_gg(
  (char_encoder): char_rnn(
    (char_embed): Embedding(91, 50)
    (char_cell): GRU(50, 100, batch_first=True, bidirectional=True)
  )
  (word_embed): Embedding(10507, 100)
  (word_encoder): GRU(300, 100, batch_first=True, bidirectional=True)
  (x2token): Linear(in_features=100, out_features=10507, bias=False)
  (to_latent_variable): gaussian_hier_layer(
    (q_mean2_mlp): Linear(in_features=200, out_features=25, bias=True)
    (q_logvar2_mlp): Linear(in_features=200, out_features=25, bias=True)
    (q_mean_mlp): Linear(in_features=225, out_features=50, bias=True)
    (q_logvar_mlp): Linear(in_features=225, out_features=50, bias=True)
  )
  (classifier): Linear(in_features=25, out_features=32, bias=True)
  (yz2x): Sequential(
    (0): Linear(in_features=50, out_features=100, bias=True)
    (1): ReLU()
    (2): Linear(in_features=100, out_features=100, bias=True)
    (3): ReLU()
    (4): Linear(in_features=100, out_features=100, bias=True)
  )
)
02-14 15:52 INFO: ************************* MODEL INITIALIZATION *************************
02-14 15:52 INFO: Training start ...
02-14 15:57 INFO: it: 5000 (max: 97), kl_temp: 0.65, labeled, loss: 1.397, logloss: 0.719, kl_div: 4.695, sup_loss: 0.227, elapsed time: 294.3(s)
02-14 16:02 INFO: it: 10000 (max: 97), kl_temp: 1.00, labeled, loss: 0.795, logloss: 0.036, kl_div: 0.754, sup_loss: 0.064, elapsed time: 305.1(s)
…
