…
02-14 16:55 INFO: #test data: 674, max len: 35, min len: 1, avg len: 19.61
02-14 16:55 INFO: #unk in test sentences: (1735, 13219, 0.13125047280429686)
02-14 16:55 INFO: labeled buffer size: logvar1: 5368, mean1: 5368, logvar2: 5368, mean2: 5368
02-14 16:55 INFO: ************************* DATA PREPARATION *************************
02-14 16:55 INFO: ************************* MODEL INITIALIZATION *************************
02-14 16:55 INFO: Initialized with pretrained word embedding
02-14 16:55 INFO: Word Embedding not trainable
02-14 16:55 INFO: transferred model to gpu
02-14 16:55 INFO: vsl_gg(
  (char_encoder): char_rnn(
    (char_embed): Embedding(190, 50)
    (char_cell): GRU(50, 100, batch_first=True, bidirectional=True)
  )
  (word_embed): Embedding(13195, 100)
  (word_encoder): GRU(300, 100, batch_first=True, bidirectional=True)
  (x2token): Linear(in_features=100, out_features=13195, bias=False)
  (to_latent_variable): gaussian_flat_layer(
    (q_mean_mlp): Linear(in_features=200, out_features=50, bias=True)
    (q_logvar_mlp): Linear(in_features=200, out_features=50, bias=True)
    (q_mean2_mlp): Linear(in_features=200, out_features=25, bias=True)
    (q_logvar2_mlp): Linear(in_features=200, out_features=25, bias=True)
  )
  (classifier): Linear(in_features=25, out_features=17, bias=True)
  (yz2x): Sequential(
    (0): Linear(in_features=75, out_features=100, bias=True)
    (1): ReLU()
    (2): Linear(in_features=100, out_features=100, bias=True)
    (3): ReLU()
    (4): Linear(in_features=100, out_features=100, bias=True)
  )
)
02-14 16:55 INFO: ************************* MODEL INITIALIZATION *************************
02-14 16:55 INFO: Training start ...
02-14 17:00 INFO: it: 5000 (max: 537), kl_temp: 0.65, labeled, loss: 1.713, logloss: 0.845, kl_div: 6.741, sup_loss: 0.393, elapsed time: 322.2(s)
02-14 17:06 INFO: it: 10000 (max: 537), kl_temp: 1.00, labeled, loss: 0.629, logloss: 0.172, kl_div: 0.269, sup_loss: 0.211, elapsed time: 326.6(s)
…
