…
02-14 16:02 INFO: #unk in unlabeled sentences: (7949, 229056, 0.034703303995529476)
02-14 16:02 INFO: labeled buffer size: logvar1: 2606, mean1: 2606, logvar2: 2606, mean2: 2606
02-14 16:02 INFO: unlabeled buffer size: logvar1: 10427, mean1: 10427, logvar2: 10427, mean2: 10427
02-14 16:02 INFO: ************************* DATA PREPARATION *************************
02-14 16:02 INFO: ************************* MODEL INITIALIZATION *************************
02-14 16:02 INFO: Initialized with pretrained word embedding
02-14 16:02 INFO: Word Embedding not trainable
02-14 16:03 INFO: transferred model to gpu
02-14 16:03 INFO: vsl_gg(
  (char_encoder): char_rnn(
    (char_embed): Embedding(125, 50)
    (char_cell): GRU(50, 100, batch_first=True, bidirectional=True)
  )
  (word_embed): Embedding(26563, 100)
  (word_encoder): GRU(300, 100, batch_first=True, bidirectional=True)
  (x2token): Linear(in_features=100, out_features=26563, bias=False)
  (to_latent_variable): gaussian_hier_layer(
    (q_mean2_mlp): Linear(in_features=200, out_features=25, bias=True)
    (q_logvar2_mlp): Linear(in_features=200, out_features=25, bias=True)
    (q_mean_mlp): Linear(in_features=225, out_features=50, bias=True)
    (q_logvar_mlp): Linear(in_features=225, out_features=50, bias=True)
  )
  (classifier): Linear(in_features=25, out_features=18, bias=True)
  (yz2x): Sequential(
    (0): Linear(in_features=50, out_features=100, bias=True)
    (1): ReLU()
    (2): Linear(in_features=100, out_features=100, bias=True)
    (3): ReLU()
    (4): Linear(in_features=100, out_features=100, bias=True)
  )
)
02-14 16:03 INFO: ************************* MODEL INITIALIZATION *************************
02-14 16:03 INFO: Training start ...
02-14 16:12 INFO: it: 5000 (max: 261), kl_temp: 0.65, labeled, loss: 1.435, logloss: 0.842, kl_div: 5.594, sup_loss: 0.282, elapsed time: 553.9(s), unlabeled, loss: 2.111, logloss: 0.892, kl_div: 13.379, elapsed time: 553.9(s)
…
