…
02-14 06:47 INFO: #unk in unlabeled sentences: (0, 82443, 0.0)
02-14 06:47 INFO: labeled buffer size: logvar1: 1073, mean1: 1073, logvar2: 1073, mean2: 1073
02-14 06:47 INFO: unlabeled buffer size: logvar1: 4295, mean1: 4295, logvar2: 4295, mean2: 4295
02-14 06:47 INFO: ************************* DATA PREPARATION *************************
02-14 06:47 INFO: ************************* MODEL INITIALIZATION *************************
02-14 06:47 INFO: Initialized with pretrained word embedding
02-14 06:47 INFO: Word Embedding not trainable
02-14 06:47 INFO: transferred model to gpu
02-14 06:47 INFO: vsl_gg(
  (char_encoder): char_rnn(
    (char_embed): Embedding(190, 50)
    (char_cell): GRU(50, 100, batch_first=True, bidirectional=True)
  )
  (word_embed): Embedding(129591, 768)
  (word_encoder): GRU(968, 500, batch_first=True, bidirectional=True)
  (x2token): Linear(in_features=768, out_features=129591, bias=False)
  (to_latent_variable): gaussian_hier_layer(
    (q_mean2_mlp): Linear(in_features=1000, out_features=100, bias=True)
    (q_logvar2_mlp): Linear(in_features=1000, out_features=100, bias=True)
    (q_mean_mlp): Linear(in_features=1100, out_features=200, bias=True)
    (q_logvar_mlp): Linear(in_features=1100, out_features=200, bias=True)
  )
  (classifier): Linear(in_features=100, out_features=17, bias=True)
  (yz2x): Sequential(
    (0): Linear(in_features=200, out_features=500, bias=True)
    (1): ReLU()
    (2): Linear(in_features=500, out_features=500, bias=True)
    (3): ReLU()
    (4): Linear(in_features=500, out_features=768, bias=True)
  )
)
02-14 06:47 INFO: ************************* MODEL INITIALIZATION *************************
02-14 06:47 INFO: Training start ...
02-14 06:57 INFO: it: 5000 (max: 108), kl_temp: 0.65, labeled, loss: 1.522, logloss: 0.857, kl_div: 6.613, sup_loss: 0.109, elapsed time: 587.2(s), unlabeled, loss: 2.132, logloss: 1.225, kl_div: 13.583, elapsed time: 587.2(s)
…
