…
02-14 16:21 INFO: #unk in unlabeled sentences: (4616, 96398, 0.0478848108881927)
02-14 16:21 INFO: labeled buffer size: logvar1: 965, mean1: 965, logvar2: 965, mean2: 965
02-14 16:21 INFO: unlabeled buffer size: logvar1: 3860, mean1: 3860, logvar2: 3860, mean2: 3860
02-14 16:21 INFO: ************************* DATA PREPARATION *************************
02-14 16:21 INFO: ************************* MODEL INITIALIZATION *************************
02-14 16:21 INFO: Initialized with pretrained word embedding
02-14 16:21 INFO: Word Embedding not trainable
02-14 16:21 INFO: transferred model to gpu
02-14 16:21 INFO: vsl_gg(
  (char_encoder): char_rnn(
    (char_embed): Embedding(97, 50)
    (char_cell): GRU(50, 100, batch_first=True, bidirectional=True)
  )
  (word_embed): Embedding(18492, 100)
  (word_encoder): GRU(300, 100, batch_first=True, bidirectional=True)
  (x2token): Linear(in_features=100, out_features=18492, bias=False)
  (to_latent_variable): gaussian_hier_layer(
    (q_mean2_mlp): Linear(in_features=200, out_features=25, bias=True)
    (q_logvar2_mlp): Linear(in_features=200, out_features=25, bias=True)
    (q_mean_mlp): Linear(in_features=225, out_features=50, bias=True)
    (q_logvar_mlp): Linear(in_features=225, out_features=50, bias=True)
  )
  (classifier): Linear(in_features=25, out_features=32, bias=True)
  (yz2x): Sequential(
    (0): Linear(in_features=50, out_features=100, bias=True)
    (1): ReLU()
    (2): Linear(in_features=100, out_features=100, bias=True)
    (3): ReLU()
    (4): Linear(in_features=100, out_features=100, bias=True)
  )
)
02-14 16:21 INFO: ************************* MODEL INITIALIZATION *************************
02-14 16:21 INFO: Training start ...
02-14 16:30 INFO: it: 5000 (max: 97), kl_temp: 0.65, labeled, loss: 1.096, logloss: 0.632, kl_div: 3.666, sup_loss: 0.262, elapsed time: 567.8(s), unlabeled, loss: 1.162, logloss: 0.708, kl_div: 8.699, elapsed time: 567.8(s)
…
