…
02-14 04:50 INFO: #unk in unlabeled sentences: (0, 93378, 0.0)
02-14 04:50 INFO: labeled buffer size: logvar1: 5368, mean1: 5368, logvar2: 5368, mean2: 5368
02-14 04:50 INFO: unlabeled buffer size: logvar1: 3990, mean1: 3990, logvar2: 3990, mean2: 3990
02-14 04:50 INFO: ************************* DATA PREPARATION *************************
02-14 04:50 INFO: ************************* MODEL INITIALIZATION *************************
02-14 04:50 INFO: Initialized with pretrained word embedding
02-14 04:50 INFO: Word Embedding not trainable
02-14 04:50 INFO: transferred model to gpu
02-14 04:50 INFO: vsl_gg(
  (char_encoder): char_rnn(
    (char_embed): Embedding(277, 50)
    (char_cell): GRU(50, 100, batch_first=True, bidirectional=True)
  )
  (word_embed): Embedding(222969, 768)
  (word_encoder): GRU(968, 500, batch_first=True, bidirectional=True)
  (x2token): Linear(in_features=768, out_features=222969, bias=False)
  (to_latent_variable): gaussian_hier_layer(
    (q_mean2_mlp): Linear(in_features=1000, out_features=100, bias=True)
    (q_logvar2_mlp): Linear(in_features=1000, out_features=100, bias=True)
    (q_mean_mlp): Linear(in_features=1100, out_features=200, bias=True)
    (q_logvar_mlp): Linear(in_features=1100, out_features=200, bias=True)
  )
  (classifier): Linear(in_features=100, out_features=17, bias=True)
  (yz2x): Sequential(
    (0): Linear(in_features=200, out_features=500, bias=True)
    (1): ReLU()
    (2): Linear(in_features=500, out_features=500, bias=True)
    (3): ReLU()
    (4): Linear(in_features=500, out_features=768, bias=True)
  )
)
02-14 04:50 INFO: ************************* MODEL INITIALIZATION *************************
02-14 04:50 INFO: Training start ...
02-14 05:00 INFO: it: 5000 (max: 537), kl_temp: 0.65, labeled, loss: 2.611, logloss: 1.358, kl_div: 13.130, sup_loss: 0.241, elapsed time: 638.8(s), unlabeled, loss: 2.170, logloss: 1.332, kl_div: 11.125, elapsed time: 638.8(s)
…
