…
02-14 16:16 INFO: #unk in unlabeled sentences: (11508, 83048, 0.13857046527309508)
02-14 16:16 INFO: labeled buffer size: logvar1: 1073, mean1: 1073, logvar2: 1073, mean2: 1073
02-14 16:16 INFO: unlabeled buffer size: logvar1: 4295, mean1: 4295, logvar2: 4295, mean2: 4295
02-14 16:16 INFO: ************************* DATA PREPARATION *************************
02-14 16:16 INFO: ************************* MODEL INITIALIZATION *************************
02-14 16:16 INFO: Initialized with pretrained word embedding
02-14 16:16 INFO: Word Embedding not trainable
02-14 16:16 INFO: transferred model to gpu
02-14 16:16 INFO: vsl_gg(
  (char_encoder): char_rnn(
    (char_embed): Embedding(190, 50)
    (char_cell): GRU(50, 100, batch_first=True, bidirectional=True)
  )
  (word_embed): Embedding(13195, 100)
  (word_encoder): GRU(300, 100, batch_first=True, bidirectional=True)
  (x2token): Linear(in_features=100, out_features=13195, bias=False)
  (to_latent_variable): gaussian_hier_layer(
    (q_mean2_mlp): Linear(in_features=200, out_features=25, bias=True)
    (q_logvar2_mlp): Linear(in_features=200, out_features=25, bias=True)
    (q_mean_mlp): Linear(in_features=225, out_features=50, bias=True)
    (q_logvar_mlp): Linear(in_features=225, out_features=50, bias=True)
  )
  (classifier): Linear(in_features=25, out_features=17, bias=True)
  (yz2x): Sequential(
    (0): Linear(in_features=50, out_features=100, bias=True)
    (1): ReLU()
    (2): Linear(in_features=100, out_features=100, bias=True)
    (3): ReLU()
    (4): Linear(in_features=100, out_features=100, bias=True)
  )
)
02-14 16:16 INFO: ************************* MODEL INITIALIZATION *************************
02-14 16:16 INFO: Training start ...
02-14 16:26 INFO: it: 5000 (max: 108), kl_temp: 0.65, labeled, loss: 1.134, logloss: 0.667, kl_div: 3.444, sup_loss: 0.271, elapsed time: 581.2(s), unlabeled, loss: 1.184, logloss: 0.738, kl_div: 8.107, elapsed time: 581.2(s)
…
