…
02-14 06:35 INFO: #unk in unlabeled sentences: (0, 20599, 0.0)
02-14 06:35 INFO: labeled buffer size: logvar1: 1073, mean1: 1073, logvar2: 1073, mean2: 1073
02-14 06:35 INFO: unlabeled buffer size: logvar1: 1074, mean1: 1074, logvar2: 1074, mean2: 1074
02-14 06:35 INFO: ************************* DATA PREPARATION *************************
02-14 06:35 INFO: ************************* MODEL INITIALIZATION *************************
02-14 06:35 INFO: Initialized with pretrained word embedding
02-14 06:35 INFO: Word Embedding not trainable
02-14 06:35 INFO: transferred model to gpu
02-14 06:35 INFO: vsl_gg(
  (char_encoder): char_rnn(
    (char_embed): Embedding(157, 50)
    (char_cell): GRU(50, 100, batch_first=True, bidirectional=True)
  )
  (word_embed): Embedding(67506, 768)
  (word_encoder): GRU(968, 500, batch_first=True, bidirectional=True)
  (x2token): Linear(in_features=768, out_features=67506, bias=False)
  (to_latent_variable): gaussian_hier_layer(
    (q_mean2_mlp): Linear(in_features=1000, out_features=100, bias=True)
    (q_logvar2_mlp): Linear(in_features=1000, out_features=100, bias=True)
    (q_mean_mlp): Linear(in_features=1100, out_features=200, bias=True)
    (q_logvar_mlp): Linear(in_features=1100, out_features=200, bias=True)
  )
  (classifier): Linear(in_features=100, out_features=17, bias=True)
  (yz2x): Sequential(
    (0): Linear(in_features=200, out_features=500, bias=True)
    (1): ReLU()
    (2): Linear(in_features=500, out_features=500, bias=True)
    (3): ReLU()
    (4): Linear(in_features=500, out_features=768, bias=True)
  )
)
02-14 06:35 INFO: ************************* MODEL INITIALIZATION *************************
02-14 06:35 INFO: Training start ...
02-14 06:44 INFO: it: 5000 (max: 108), kl_temp: 0.65, labeled, loss: 1.453, logloss: 0.730, kl_div: 6.815, sup_loss: 0.092, elapsed time: 558.9(s), unlabeled, loss: 1.428, logloss: 0.824, kl_div: 6.689, elapsed time: 558.9(s)
…
