…
02-14 06:13 INFO: #unk in unlabeled sentences: (0, 142710, 0.0)
02-14 06:13 INFO: labeled buffer size: logvar1: 2606, mean1: 2606, logvar2: 2606, mean2: 2606
02-14 06:13 INFO: unlabeled buffer size: logvar1: 6517, mean1: 6517, logvar2: 6517, mean2: 6517
02-14 06:13 INFO: ************************* DATA PREPARATION *************************
02-14 06:13 INFO: ************************* MODEL INITIALIZATION *************************
02-14 06:13 INFO: Initialized with pretrained word embedding
02-14 06:13 INFO: Word Embedding not trainable
02-14 06:13 INFO: transferred model to gpu
02-14 06:13 INFO: vsl_gg(
  (char_encoder): char_rnn(
    (char_embed): Embedding(121, 50)
    (char_cell): GRU(50, 100, batch_first=True, bidirectional=True)
  )
  (word_embed): Embedding(223743, 768)
  (word_encoder): GRU(968, 500, batch_first=True, bidirectional=True)
  (x2token): Linear(in_features=768, out_features=223743, bias=False)
  (to_latent_variable): gaussian_hier_layer(
    (q_mean2_mlp): Linear(in_features=1000, out_features=100, bias=True)
    (q_logvar2_mlp): Linear(in_features=1000, out_features=100, bias=True)
    (q_mean_mlp): Linear(in_features=1100, out_features=200, bias=True)
    (q_logvar_mlp): Linear(in_features=1100, out_features=200, bias=True)
  )
  (classifier): Linear(in_features=100, out_features=18, bias=True)
  (yz2x): Sequential(
    (0): Linear(in_features=200, out_features=500, bias=True)
    (1): ReLU()
    (2): Linear(in_features=500, out_features=500, bias=True)
    (3): ReLU()
    (4): Linear(in_features=500, out_features=768, bias=True)
  )
)
02-14 06:13 INFO: ************************* MODEL INITIALIZATION *************************
02-14 06:13 INFO: Training start ...
02-14 06:23 INFO: it: 5000 (max: 261), kl_temp: 0.65, labeled, loss: 2.165, logloss: 1.301, kl_div: 9.577, sup_loss: 0.145, elapsed time: 625.6(s), unlabeled, loss: 2.817, logloss: 1.537, kl_div: 15.742, elapsed time: 625.6(s)
…
