…
02-14 17:03 INFO: #test data: 670, max len: 145, min len: 1, avg len: 25.84
02-14 17:03 INFO: #unk in test sentences: (800, 17313, 0.04620805175301796)
02-14 17:03 INFO: labeled buffer size: logvar1: 4825, mean1: 4825, logvar2: 4825, mean2: 4825
02-14 17:03 INFO: ************************* DATA PREPARATION *************************
02-14 17:03 INFO: ************************* MODEL INITIALIZATION *************************
02-14 17:03 INFO: Initialized with pretrained word embedding
02-14 17:03 INFO: Word Embedding not trainable
02-14 17:04 INFO: transferred model to gpu
02-14 17:04 INFO: vsl_gg(
  (char_encoder): char_rnn(
    (char_embed): Embedding(97, 50)
    (char_cell): GRU(50, 100, batch_first=True, bidirectional=True)
  )
  (word_embed): Embedding(18492, 100)
  (word_encoder): GRU(300, 100, batch_first=True, bidirectional=True)
  (x2token): Linear(in_features=100, out_features=18492, bias=False)
  (to_latent_variable): gaussian_flat_layer(
    (q_mean_mlp): Linear(in_features=200, out_features=50, bias=True)
    (q_logvar_mlp): Linear(in_features=200, out_features=50, bias=True)
    (q_mean2_mlp): Linear(in_features=200, out_features=25, bias=True)
    (q_logvar2_mlp): Linear(in_features=200, out_features=25, bias=True)
  )
  (classifier): Linear(in_features=25, out_features=32, bias=True)
  (yz2x): Sequential(
    (0): Linear(in_features=75, out_features=100, bias=True)
    (1): ReLU()
    (2): Linear(in_features=100, out_features=100, bias=True)
    (3): ReLU()
    (4): Linear(in_features=100, out_features=100, bias=True)
  )
)
02-14 17:04 INFO: ************************* MODEL INITIALIZATION *************************
02-14 17:04 INFO: Training start ...
02-14 17:09 INFO: it: 5000 (max: 483), kl_temp: 0.65, labeled, loss: 1.703, logloss: 0.851, kl_div: 7.638, sup_loss: 0.346, elapsed time: 320.6(s)
02-14 17:14 INFO: it: 10000 (max: 483), kl_temp: 1.00, labeled, loss: 0.502, logloss: 0.106, kl_div: 0.271, sup_loss: 0.149, elapsed time: 315.8(s)
…
