…
02-14 16:45 INFO: #test data: 482, max len: 125, min len: 5, avg len: 23.14
02-14 16:45 INFO: #unk in test sentences: (380, 11153, 0.034071550255536626)
02-14 16:45 INFO: labeled buffer size: logvar1: 13033, mean1: 13033, logvar2: 13033, mean2: 13033
02-14 16:45 INFO: ************************* DATA PREPARATION *************************
02-14 16:45 INFO: ************************* MODEL INITIALIZATION *************************
02-14 16:45 INFO: Initialized with pretrained word embedding
02-14 16:45 INFO: Word Embedding not trainable
02-14 16:45 INFO: transferred model to gpu
02-14 16:45 INFO: vsl_gg(
  (char_encoder): char_rnn(
    (char_embed): Embedding(125, 50)
    (char_cell): GRU(50, 100, batch_first=True, bidirectional=True)
  )
  (word_embed): Embedding(26563, 100)
  (word_encoder): GRU(300, 100, batch_first=True, bidirectional=True)
  (x2token): Linear(in_features=100, out_features=26563, bias=False)
  (to_latent_variable): gaussian_hier_layer(
    (q_mean2_mlp): Linear(in_features=200, out_features=25, bias=True)
    (q_logvar2_mlp): Linear(in_features=200, out_features=25, bias=True)
    (q_mean_mlp): Linear(in_features=225, out_features=50, bias=True)
    (q_logvar_mlp): Linear(in_features=225, out_features=50, bias=True)
  )
  (classifier): Linear(in_features=25, out_features=18, bias=True)
  (yz2x): Sequential(
    (0): Linear(in_features=50, out_features=100, bias=True)
    (1): ReLU()
    (2): Linear(in_features=100, out_features=100, bias=True)
    (3): ReLU()
    (4): Linear(in_features=100, out_features=100, bias=True)
  )
)
02-14 16:45 INFO: ************************* MODEL INITIALIZATION *************************
02-14 16:45 INFO: Training start ...
02-14 16:50 INFO: it: 5000 (max: 1304), kl_temp: 0.65, labeled, loss: 3.392, logloss: 1.370, kl_div: 13.516, sup_loss: 0.348, elapsed time: 309.4(s)
02-14 16:56 INFO: it: 10000 (max: 1304), kl_temp: 1.00, labeled, loss: 0.824, logloss: 0.324, kl_div: 0.359, sup_loss: 0.174, elapsed time: 305.1(s)
…
