…
02-14 16:56 INFO: #test data: 674, max len: 35, min len: 1, avg len: 19.61
02-14 16:56 INFO: #unk in test sentences: (1735, 13219, 0.13125047280429686)
02-14 16:56 INFO: labeled buffer size: logvar1: 5368, mean1: 5368, logvar2: 5368, mean2: 5368
02-14 16:56 INFO: ************************* DATA PREPARATION *************************
02-14 16:56 INFO: ************************* MODEL INITIALIZATION *************************
02-14 16:56 INFO: Initialized with pretrained word embedding
02-14 16:56 INFO: Word Embedding not trainable
02-14 16:56 INFO: transferred model to gpu
02-14 16:56 INFO: vsl_gg(
  (char_encoder): char_rnn(
    (char_embed): Embedding(190, 50)
    (char_cell): GRU(50, 100, batch_first=True, bidirectional=True)
  )
  (word_embed): Embedding(13195, 100)
  (word_encoder): GRU(300, 100, batch_first=True, bidirectional=True)
  (x2token): Linear(in_features=100, out_features=13195, bias=False)
  (to_latent_variable): gaussian_hier_layer(
    (q_mean2_mlp): Linear(in_features=200, out_features=25, bias=True)
    (q_logvar2_mlp): Linear(in_features=200, out_features=25, bias=True)
    (q_mean_mlp): Linear(in_features=225, out_features=50, bias=True)
    (q_logvar_mlp): Linear(in_features=225, out_features=50, bias=True)
  )
  (classifier): Linear(in_features=25, out_features=17, bias=True)
  (yz2x): Sequential(
    (0): Linear(in_features=50, out_features=100, bias=True)
    (1): ReLU()
    (2): Linear(in_features=100, out_features=100, bias=True)
    (3): ReLU()
    (4): Linear(in_features=100, out_features=100, bias=True)
  )
)
02-14 16:56 INFO: ************************* MODEL INITIALIZATION *************************
02-14 16:56 INFO: Training start ...
02-14 17:01 INFO: it: 5000 (max: 537), kl_temp: 0.65, labeled, loss: 1.880, logloss: 0.956, kl_div: 8.127, sup_loss: 0.352, elapsed time: 299.5(s)
02-14 17:06 INFO: it: 10000 (max: 537), kl_temp: 1.00, labeled, loss: 0.651, logloss: 0.192, kl_div: 0.320, sup_loss: 0.166, elapsed time: 312.7(s)
…
